…
        ax.set_yticks([])

    # Ensure the plot is shown correctly with multiple plots
    # in a single Notebook cell.
    plt.show()
#+END_SRC

#+RESULTS:
:RESULTS:
# Out[52]:
:END:

*** Get Layers
Keras has a simple way of *listing the layers in the model*.
#+BEGIN_SRC ipython :session :exports both :async t :results raw drawer
model3.summary()
#+END_SRC

#+RESULTS:
:RESULTS:
# Out[53]:
:END:

_________________________________________________________________
Layer (type)                 Output Shape              Param #
=================================================================
input_2 (InputLayer)         (None, 784)               0
_________________________________________________________________
reshape_2 (Reshape)          (None, 28, 28, 1)         0
_________________________________________________________________
layer_conv1 (Conv2D)         (None, 28, 28, 16)        416
_________________________________________________________________
max_pooling2d_3 (MaxPooling2 (None, 14, 14, 16)        0
_________________________________________________________________
layer_conv2 (Conv2D)         (None, 14, 14, 36)        14436
_________________________________________________________________
max_pooling2d_4 (MaxPooling2 (None, 7, 7, 36)          0
_________________________________________________________________
flatten_2 (Flatten)          (None, 1764)              0
_________________________________________________________________
dense_3 (Dense)              (None, 128)               225920
_________________________________________________________________
dense_4 (Dense)              (None, 10)                1290
=================================================================
Total params: 242,062
Trainable params: 242,062
Non-trainable params: 0
_________________________________________________________________
We count the indices to get the layers we want.

The input-layer has index 0.

#+BEGIN_SRC ipython :session :exports both :async t :results raw drawer
layer_input = model3.layers[0]
#+END_SRC

#+RESULTS:
…
